models/hey_jarvis_v0.1.onnx (onnx, 415224 bytes, 9 tensors)

layer1.weight f4 [64, 1536]
0	0xba8c0639	-0.0010683007
1	0x3d2fcf8d	0.042922545
2	0xbd790c50	-0.060802758
3	0x3d09e38e	0.03366428
4	0x3c2771b2	0.010219978
5	0xbd208365	-0.039187808
6	0x3d68817a	0.056764103
7	0xbdba2806	-0.09089665
8	0x3d766eaa	0.06016413
9	0xbce840b7	-0.028351171
10	0xbb23b19b	-0.0024977687
11	0xbcc2d440	-0.02378285
12	0x3d14d421	0.036335114
13	0x3aacccb9	0.0013183571
14	0x3bf8eeba	0.007596818
15	0xbbe84e47	-0.0070894095
16	0xbc94cc71	-0.018163892
17	0xb85163b1	-4.9922328e-05
18	0xbd00dd0b	-0.031460803
19	0xbd285cec	-0.041104242
20	0x3c56784b	0.0130902035
21	0x3c736cef	0.014857515
22	0xba4d9894	-0.00078428653
23	0xb9f94caf	-0.00047550115
24	0x3ce09910	0.027416736
25	0xbb2f10ca	-0.0026712888
26	0xbcf4bac1	-0.029874207
27	0xbd12eb80	-0.03586912
28	0x3c7f57c8	0.0155848935
29	0xbc84c860	-0.016208827
30	0x3c396fc7	0.011318154
31	0x3b4433aa	0.002993802
32	0x3d3e656c	0.046483442
33	0xbd864abf	-0.065572254
34	0xbcf1e9e9	-0.029530482
35	0xbd27bf0f	-0.040953692
36	0xbc442b3e	-0.0119732
37	0x3d9780e5	0.073976316
38	0xbd2ceeea	-0.042220034
39	0x3b2e0628	0.0026553962
40	0xbd4fc6de	-0.050726764
41	0x3d840561	0.064463384
42	0x3cbd961c	0.023142867
43	0xbd3b0b0c	-0.045664832
44	0xbd87cef9	-0.06631274
45	0x3cec49b8	0.028843746
46	0x3a9677b1	0.0011479763
47	0x3cc4e5d6	0.024035376
48	0x3c269615	0.010167618
49	0x3d1bcb49	0.038035665
50	0xbccc8289	-0.024964588
51	0xbc15d937	-0.009146026
52	0xbd8be738	-0.06831211
53	0x3cbe204e	0.023208763
54	0xbd03e8cf	-0.032204445
55	0xbd0712b8	-0.032976836
56	0xbd0f892c	-0.035042927
57	0x3cb0d8fe	0.021587845
58	0xbc819a8d	-0.015820766
59	0xbd2b3341	-0.041796926
60	0xbd38fff5	-0.045165975
61	0x3bdc36cc	0.0067203995
62	0x3d7e3677	0.06206366
63	0xbd368a88	-0.044565707
64	0x3d53a981	0.051675323
65	0x3d987efc	0.07446095
66	0x3db33b57	0.087515526
67	0xbcc11862	-0.023571197
68	0xbd84b2d8	-0.06479424
69	0x3d7c0dfe	0.06153678
70	0xbdfa3946	-0.12217955
71	0x3d1599aa	0.0365235
72	0x3d52f649	0.051504407
73	0x3cc50fba	0.02405535
74	0x3d2c205f	0.04202306
75	0x3cf27391	0.029596122
76	0xbd5ee5af	-0.054418262
77	0xbcbbee53	-0.02294079
78	0xbc6de900	-0.014520884
79	0xbcfd391b	-0.03091102
80	0xbb15e4b7	-0.002287192
81	0xbb893c77	-0.004188116
82	0xbbfd1599	-0.007723522
83	0x3d54d23d	0.05195831
84	0xbb9dc36d	-0.0048145563
85	0xbbd3fa07	-0.0064690146
86	0xbcdad256	-0.026711624
87	0xbd77ce85	-0.060499687
88	0x3d28e9da	0.041238643
89	0xbc3209a1	-0.0108665535
90	0xbcfd4580	-0.03091693
91	0x3c7c6669	0.015405276
92	0x3ceb7772	0.02874348
93	0x3c3c1747	0.011480159
94	0x3deffcbb	0.117181264
95	0x3d12bf0e	0.035826735
96	0x3cd06b3f	0.025441764
97	0x3d977542	0.07395412
98	0xbc89e1d1	-0.01683131
99	0x3d186aa4	0.037211075
100	0x3bfc6437	0.007702376
101	0xbd0b4289	-0.033999
102	0x3d3858c0	0.045006514
103	0xbccc7d81	-0.024962189
104	0x3ca27cf4	0.019834973
105	0xbd0167be	-0.031593077
106	0x3cbcba51	0.023038061
107	0x3d81eeb0	0.06344354
108	0xbc95bd31	-0.01827869
109	0xba9a8d75	-0.0011791425
110	0x3c083195	0.0083126025
111	0xbcf8d651	-0.030375632
112	0x3c16b736	0.009198954
113	0x3bd4e966	0.00649755
114	0xbb9daa09	-0.0048115295
115	0xbced9655	-0.029002348
116	0x3c076b50	0.008265331
117	0x3ceae272	0.02867243
118	0xbadcc89e	-0.0016844457
119	0x3baca8c7	0.0052691433
120	0xbcf03781	-0.029323341
121	0x3ae651b3	0.0017571956
122	0xbbbc971c	-0.0057553183
123	0xbcffc130	-0.031220049
124	0x3d0a53fa	0.033771493
125	0xbd825e7b	-0.06365677
126	0x3d0a5814	0.033775404
127	0xbc95fe71	-0.018309804
128	0xbbd74743	-0.0065697744
129	0xbd813131	-0.06308211
130	0xbd8c519c	-0.06851503
131	0xbd7e0dcc	-0.062024876
132	0x3c3d0fcb	0.01153941
133	0x3d856687	0.06513696
134	0xbd26e53b	-0.040745955
135	0x3bceb597	0.0063082683
136	0xbc5e15c8	-0.013554998
137	0x3c9ebb6e	0.019376483
138	0xbcc4caa4	-0.024022408
139	0xbd860298	-0.065434635
140	0xbd0e0151	-0.034669224
141	0x3c92cd5f	0.017920194
142	0x3d0153ea	0.031574167
143	0xbcda0547	-0.026613845
144	0x3d1d4a9c	0.03840123
145	0x3c9e8a29	0.01935299
146	0x3c7a3171	0.015270577
147	0xbc6a63df	-0.014306038
148	0xbd523a47	-0.05132511
149	0x3c104e47	0.008807725
150	0xbbfcd3d9	-0.007715684
151	0xbcb662a2	-0.022263829
152	0xbd321952	-0.04348118
153	0xbcda9dfa	-0.026686657
154	0xbd11ba8a	-0.03557829
155	0x3d1e0938	0.03858301
156	0xbc399914	-0.011328001
157	0xbd20fbc3	-0.0393026
158	0xba88c290	-0.0010433961
159	0xbd1c5528	-0.03816715
160	0x3cc27c3a	0.023740876
161	0x3d1e01d2	0.038575955
162	0x3cc21109	0.023689764
163	0xbc7670d6	-0.015041551
164	0xbd9f2415	-0.07770554
165	0x3dd8388b	0.1055766
166	0xbdef7bf4	-0.11693564
167	0x3c57c0f5	0.013168563
168	0x3b66f827	0.0035243125
169	0xbc729b3e	-0.01480752
170	0x3d80c8ad	0.06288276
171	0x3d5b6427	0.05356231
172	0xbda44161	-0.080202825
173	0xbb7fbb5b	-0.0039021585
174	0x3afd268e	0.0019313858
175	0xbb68269e	-0.0035423408
176	0xbd5b5c1e	-0.053554647
177	0x3c829c18	0.015943572
178	0x3c5c998a	0.013464341
179	0x3bc636a6	0.006048995
180	0x3cb101e0	0.02160734
181	0x3d13202e	0.03591936
182	0xbdd72157	-0.10504406
183	0xbcdaa8dc	-0.026691847
184	0xbd0fa75b	-0.035071712
185	0x3b8b772a	0.004256149
186	0xbd0268aa	-0.031838097
187	0x3d069060	0.03285253
188	0xbbb803cf	-0.0056156884
189	0xbc70ba42	-0.014692845
190	0x3d88f094	0.06686512
191	0x3be34b55	0.0069364705
192	0xbd5932a6	-0.053026818
193	0x3d17d08b	0.037064116
194	0xbc140fa1	-0.009036929
195	0x3cb91629	0.022593575
196	0x3c6b64a6	0.014367258
197	0x3b249468	0.002511287
198	0x3c3f718a	0.011684785
199	0xbb98ea3e	-0.0046665957
200	0x3b2b9fd0	0.0026187785
201	0x3d0463e5	0.03232183
202	0x3c24dbb3	0.010062146
203	0x3d53492f	0.051583465
204	0x3d1d48dc	0.038399562
205	0x3d88eb91	0.06685556
206	0xbaa006d0	-0.0012209062
207	0xbd099509	-0.033589397
208	0xbcd7bda3	-0.026335543
209	0xbd2c783d	-0.042106856
210	0x3d577b61	0.052607898
211	0xbc6b1928	-0.014349259
212	0x3cf552c3	0.02994669
213	0x3c31367a	0.010816211
214	0xbc59093e	-0.013246832
215	0xbd30a017	-0.043121424
216	0x3d27d583	0.040975105
217	0x3d849bf1	0.06475056
218	0x3c47dd03	0.012198689
219	0x3c325562	0.010884615
220	0x3d8a9564	0.06766775
221	0xbd548c08	-0.051891357
222	0x3d45725d	0.04820477
223	0x3cb89814	0.022533454
224	0x3c02a3ce	0.007973624
225	0xbd2a0a6f	-0.041513857
226	0xbd2f7ad1	-0.042841736
227	0xbce54d55	-0.027990976
228	0xbad70e38	-0.0016407436
229	0x3d4d5f16	0.05013951
230	0xbc033a1c	-0.00800946
231	0x3cb41973	0.021984791
232	0xbd73b7dd	-0.059501518
233	0x3cefb9b6	0.029263359
234	0xbc9cd51b	-0.019144585
235	0xbd5df0d4	-0.05418475
236	0xbc5a354c	-0.013318371
237	0x3d282dd8	0.041059345
238	0xbc2fc51a	-0.010728145
239	0xbd906b9b	-0.07051774
240	0x3a8a245d	0.0010539402
241	0xbc452562	-0.012032839
242	0xbca88124	-0.020569392
243	0x3d1e3e4f	0.03863364
244	0x39a391cf	0.0003119842
245	0x3c637829	0.013883629
246	0xbcf79a84	-0.030225046
247	0xbb72428f	-0.0036965942
248	0xb9e56022	-0.00043749908
249	0x3c8088d3	0.015690243
250	0xbcf36deb	-0.029715499
251	0x3d6c92b9	0.057757113
252	0x3d84cad2	0.064839974
253	0x3bb2a729	0.005452056
254	0xbccba145	-0.024857173
255	0xbcc95ee2	-0.024581376

layer1.bias f4 [64]
0	0x3c7d78db	0.015470709
1	0xbca0ac9a	-0.019613553
2	0xbc41cf91	-0.011829273
3	0x3ce721a8	0.02821429
4	0x3cb4e714	0.022082843
5	0x3d1a23f2	0.037631936
6	0xbc6eb8b9	-0.0145704085
7	0xbbb9cebe	-0.0056703975
8	0x3cfbbfc1	0.030731084
9	0x3d58eadd	0.052958358
10	0x3c98afe0	0.018638551
11	0x3d14496e	0.03620284
12	0xbc8e74ff	-0.017389772
13	0xbc9c5b44	-0.019086488
14	0x3c5220a4	0.012825165
15	0x3cac6763	0.021045392
16	0x3d3f0f89	0.046645675
17	0xbc7535a1	-0.014966399
18	0xbc254a63	-0.010088536
19	0x3d475893	0.048668455
20	0x3c67e8d8	0.014154635
21	0xbc61de50	-0.013785914
22	0x3bdbfc9f	0.0067134644
23	0x3cd7e301	0.026353361
24	0x3c4147b2	0.011796879
25	0x3cafc444	0.021455891
26	0x3d12308c	0.03569083
27	0xbb85f1cf	-0.0040876637
28	0x3d10559b	0.03523789
29	0xbb9168a0	-0.004437521
30	0x3c8a862e	0.016909685
31	0x3cc88b0e	0.024480369
32	0x3c815da1	0.015791716
33	0x3c9d6d6c	0.019217215
34	0xbc5836a7	-0.013196624
35	0xbbb827e0	-0.005619988
36	0x3b9aead2	0.0047277
37	0x3cf56add	0.029958183
38	0x3ce926de	0.028460916
39	0x3b719c69	0.003686691
40	0x3be48538	0.0069738887
41	0x3ca98b9b	0.020696452
42	0x3cfc2817	0.030780835
43	0x3d43e898	0.04782924
44	0x3cfbe962	0.030750934
45	0x3cc37ce7	0.023863269
46	0x3c8ccbce	0.017187025
47	0x3c0918f1	0.008367763
48	0xbc31c850	-0.010850981
49	0x3c8794cd	0.016550446
50	0x3c93e9cb	0.018055817
51	0x3cfbc973	0.030735707
52	0x3ce284a8	0.027651146
53	0x3bc86cd8	0.006116491
54	0xbaf67f0d	-0.0018806175
55	0xbb109206	-0.0022059693
56	0x3cc1babe	0.023648616
57	0x3ccdaf17	0.025107903
58	0xbc36700f	-0.011135115
59	0x3cdd0d4a	0.026983876
60	0xbc01ab67	-0.007914401
61	0x3c3ce4c0	0.011529148
62	0x3c7dd9ef	0.015493854
63	0x3ce17ad0	0.027524382

layernorm1.weight f4 [64]
0	0x3f7eb5ba	0.9949604
1	0x3f8b9f8f	1.0908068
2	0x3f7d52de	0.9895457
3	0x3f85091b	1.0393404
4	0x3f804d42	1.0023577
5	0x3f80d39e	1.006458
6	0x3f7a96c3	0.97886294
7	0x3f818433	1.0118469
8	0x3f8ac9f4	1.0842881
9	0x3f770474	0.9649117
10	0x3f85a51a	1.044101
11	0x3f84647e	1.0343168
12	0x3f836bba	1.026725
13	0x3f8a6485	1.0811926
14	0x3f863007	1.0483407
15	0x3f81e792	1.0148795
16	0x3f8b83a8	1.0899553
17	0x3f970bdf	1.1800498
18	0x3f84963e	1.035835
19	0x3f856f2b	1.0424551
20	0x3f74b290	0.95584965
21	0x3f83e0bc	1.0302958
22	0x3f8202d2	1.0157111
23	0x3f865f81	1.0497895
24	0x3f80561c	1.0026278
25	0x3f7f3f1c	0.9970567
26	0x3f82cc8c	1.0218673
27	0x3f805cc3	1.0028309
28	0x3f81600d	1.0107437
29	0x3f8e24ee	1.110502
30	0x3f7e3a19	0.993074
31	0x3f85c0c4	1.0449452
32	0x3f86cfde	1.0532186
33	0x3f82a087	1.0205239
34	0x3f850d9c	1.0394778
35	0x3f7b9372	0.9827186
36	0x3f79fde5	0.9765304
37	0x3f7f36fe	0.99693286
38	0x3f839827	1.0280808
39	0x3f7ab2c6	0.97929037
40	0x3f809727	1.0046128
41	0x3f86789e	1.050556
42	0x3f7e4c80	0.9933548
43	0x3f7f1091	0.99634653
44	0x3f8b6b8a	1.0892193
45	0x3f85d429	1.0455371
46	0x3f7a56fa	0.97788966
47	0x3f825308	1.0181589
48	0x3f7746f4	0.9659264
49	0x3f8a2ea6	1.0795486
50	0x3f8652bf	1.0494002
51	0x3f7b449f	0.9815158
52	0x3f80ecb2	1.0072234
53	0x3f821285	1.0161902
54	0x3f98a59e	1.1925542
55	0x3f7e7ba6	0.9940742
56	0x3f850012	1.0390646
57	0x3f80f1ab	1.0073751
58	0x3f87d461	1.0611688
59	0x3f818f14	1.0121789
60	0x3f870cb0	1.0550747
61	0x3f841548	1.0318995
62	0x3f7858ac	0.970103
63	0x3f8401b0	1.0313015

layernorm1.bias f4 [64]
0	0xbc8686a0	-0.016421616
1	0x3cd5ae0e	0.026083972
2	0xbd1048e0	-0.03522575
3	0x3cd75ebd	0.026290292
4	0x3d311843	0.04323603
5	0x3caa9c44	0.020826466
6	0x3c836070	0.016037196
7	0xbd128324	-0.035769597
8	0x3ce52720	0.027972758
9	0x3bb4a3f8	0.0055127107
10	0x3c6af655	0.014340957
11	0x3c3e26ea	0.0116059575
12	0x3c87191e	0.016491469
13	0x3bf40d6b	0.0074478886
14	0x3c6b9bec	0.014380436
15	0xbc79df71	-0.0152510265
16	0x3ca472e1	0.02007431
17	0x3d1a2b4e	0.037638955
18	0x3d342327	0.043978836
19	0x3cabf3c1	0.020990254
20	0xb93fe8fe	-0.00018301976
21	0x3d07284b	0.03299741
22	0x3d3b2a9f	0.045694944
23	0x3ca5ed47	0.020254744
24	0xbd047142	-0.032334574
25	0x3bf2da08	0.0074112453
26	0x3c9a988e	0.018871572
27	0xbbe9a9d8	-0.0071308427
28	0x3c05d02a	0.008167306
29	0x3c1bb19f	0.009502797
30	0x3c32a5f0	0.01090382
31	0x3c9c731c	0.019097857
32	0x3c5de873	0.01354419
33	0xbd8bfd2c	-0.06835398
34	0x3c69b8e2	0.014265271
35	0xbcc7dce4	-0.024397321
36	0xbb0d80e4	-0.0021591717
37	0xbc663e37	-0.014052919
38	0x3c55613d	0.013023672
39	0xbc0304e7	-0.007996774
40	0x3cd3ed29	0.025869923
41	0x3c64a329	0.013954916
42	0x3c99fdfb	0.018797865
43	0x3bad241f	0.005283847
44	0x3d49ea6b	0.049295824
45	0x3d24b4ec	0.040211603
46	0x3caa8eae	0.020819988
47	0x3cb676ca	0.02227344
48	0xbdb2a526	-0.08722906
49	0x3d46d521	0.0485431
50	0x3c7a0e5c	0.015262213
51	0xbc2a4044	-0.010391299
52	0x3cf09f32	0.029372785
53	0xbbdffa08	-0.006835226
54	0x3cadc7cf	0.02121344
55	0xbc97b600	-0.018519402
56	0x3c6c9dfd	0.014441964
57	0x3cc7226a	0.024308402
58	0x3cb647ff	0.022251127
59	0x3c478389	0.0121773565
60	0x3b99633f	0.0046810205
61	0x3c972943	0.018452292
62	0x3c3b3512	0.011426227
63	0x3c06482e	0.00819592

blocks.0.fcn_layer.weight f4 [64, 64]
0	0xbdb971d9	-0.09054918
1	0x3e60ce9f	0.2195382
2	0x3df4588f	0.11930954
3	0x3dedee48	0.11617714
4	0x3e105627	0.14095365
5	0x3dc15f99	0.09442062
6	0x3e042d9b	0.12908022
7	0x3d955d1f	0.07293152
8	0x3dd0093e	0.10158013
9	0x3d689b25	0.056788582
10	0x3d88d8b1	0.066819556
11	0xbcaf3492	-0.021387372
12	0x3db32ef2	0.087491885
13	0x3e129f12	0.14318493
14	0x3d9f59da	0.0778081
15	0xbe02c96c	-0.12772149
16	0xbe1081a6	-0.14111957
17	0x3e1b3b7e	0.15159413
18	0x3d81f62b	0.06345781
19	0xbd98b4c6	-0.07456355
20	0x3c32b5da	0.010907615
21	0x3d502507	0.050816562
22	0x3e26e757	0.16299187
23	0x3df0a795	0.11750714
24	0x3d954f0b	0.07290467
25	0x3e07fe1b	0.13280527
26	0xbb6e06e7	-0.0036320032
27	0x3c165665	0.0091758715
28	0x3e02ae7f	0.12761877
29	0xbd86e852	-0.0658728
30	0x3c8b64e7	0.017015887
31	0x3db11877	0.086472444
32	0xbe092663	-0.1339355
33	0x3e375485	0.17903335
34	0x3ddc229f	0.10748791
35	0x3b373cb8	0.0027959775
36	0x3d6deee9	0.05808917
37	0x3e0e4135	0.13892062
38	0xbe078a7c	-0.13236421
39	0x3dffe92a	0.124956444
40	0x3d0c2026	0.034210347
41	0xbdf50ef1	-0.119657405
42	0x3dda6bf4	0.10665122
43	0xbde57fc6	-0.112060115
44	0x3e027251	0.12738921
45	0x3e06241a	0.13099709
46	0xbe0af1b4	-0.13568765
47	0xbd880a1c	-0.06642553
48	0x3d284672	0.041082807
49	0x3df706b4	0.120618254
50	0xbd46f26b	-0.04857103
51	0x3e2b029c	0.16700214
52	0xbbd3281e	-0.0064439913
53	0x3d9a91de	0.07547353
54	0x3e802ab9	0.25032595
55	0xbe0a6036	-0.13513264
56	0x3c3b569b	0.011434223
57	0xbcecaa01	-0.028889658
58	0xbcff9dfd	-0.031203264
59	0xbe054e93	-0.13018255
60	0xbc76b948	-0.015058823
61	0x3d125bca	0.035732068
62	0xbdb5c396	-0.08875196
63	0x3cfd0695	0.030886928
64	0x3d95ca94	0.07314029
65	0x3db47c5c	0.08812782
66	0xbd1804ee	-0.037114076
67	0x3d8dfe9a	0.06933327
68	0x3d11b936	0.03557702
69	0x3cc0525e	0.023476776
70	0x3cc3922b	0.02387341
71	0xbdb4408e	-0.08801375
72	0x3e321a6b	0.1739289
73	0x3d023fe0	0.031799197
74	0xbd9e0006	-0.07714848
75	0xbd5aba88	-0.053400546
76	0x3d7dae6f	0.06193393
77	0x3d8ba90f	0.06819355
78	0x3d587e65	0.052854914
79	0x3d13cf38	0.03608629
80	0xbdec8a54	-0.115498215
81	0x3e3240b2	0.17407492
82	0x3dcb980b	0.09941109
83	0x3e11f99c	0.14255375
84	0xbddbe425	-0.107368745
85	0x3dee4c25	0.11635617
86	0x3e261913	0.16220503
87	0xbd5e587b	-0.0542836
88	0x3d384e3f	0.044996496
89	0xbcf6428c	-0.030061029
90	0xbdac1390	-0.08402169
91	0xbd644126	-0.055726193
92	0x3db33698	0.08750647
93	0xbdf80b10	-0.12111485
94	0x3d6384aa	0.05554644
95	0xbd360320	-0.044436574
96	0x3dfa6095	0.12225453
97	0x3e76a736	0.24087223
98	0xbd024628	-0.031805187
99	0xbd928fbc	-0.071563214
100	0x3d8c35bf	0.06846189
101	0xbcac6d37	-0.021048171
102	0xbdb45d03	-0.08806803
103	0x3a56dd00	0.0008196384
104	0xbd87fa62	-0.066395536
105	0xbd68841e	-0.05676662
106	0x3d8d59ac	0.06901869
107	0xbe0d1bab	-0.13780086
108	0x3de04d22	0.10952212
109	0x3d02f323	0.031970154
110	0xbdaaa83a	-0.08332868
111	0xbb9d93f6	-0.004808898
112	0x3c03c343	0.0080421595
113	0x3e246b93	0.16056661
114	0xbc9f1ffc	-0.019424431
115	0xbc0ed470	-0.008717641
116	0x3dbe3847	0.09288078
117	0x3d8b25ef	0.06794345
118	0x3e0c6f19	0.13714255
119	0xbdaa0e99	-0.083035655
120	0x3d93e42b	0.07221254
121	0xbd4262b8	-0.047457427
122	0xbd2cfa87	-0.04223111
123	0xbde7d055	-0.11319033
124	0x3e546535	0.20741732
125	0x3df60c32	0.12014045
126	0xbd801288	-0.062535346
127	0x3e0193c3	0.12654023
128	0x3bc8b688	0.006125275
129	0x3d3259bc	0.04354261
130	0x3d599dde	0.05312907
131	0x3ce7ed17	0.028311295
132	0x3d228d5b	0.03968559
133	0xbdae2ba9	-0.08504421
134	0x3d5b7fb7	0.053588595
135	0xbc5253d8	-0.012837373
136	0x3e003677	0.12520777
137	0xbdaef2eb	-0.08542427
138	0x3d3373fb	0.04381178
139	0xbd3ac25d	-0.045595516
140	0xbce7a081	-0.028274776
141	0x3de633d6	0.11240356
142	0x3e5423ef	0.20716833
143	0xbc0e6016	-0.008689901
144	0xbe045c39	-0.12925805
145	0x3d3dc1d6	0.046327434
146	0x3d578085	0.0526128
147	0x3d0480c8	0.032349378
148	0x3c530400	0.012879372
149	0xbcf3219d	-0.029679114
150	0x3cc7b7da	0.02437966
151	0x3d8783ad	0.06616912
152	0x3ce7f17a	0.028313387
153	0x3d146f69	0.03623906
154	0xbd811dd9	-0.06304521
155	0x3db6283f	0.08894395
156	0x3cf7c855	0.030246893
157	0x3de5911d	0.11209319
158	0xbbd13fac	-0.006385764
159	0x3dd01e33	0.1016201
160	0x3d2700dc	0.040772304
161	0x3d8b7b2d	0.06810603
162	0x3d10e2b8	0.035372466
163	0x3db031df	0.08603262
164	0x3ce4714e	0.02788606
165	0xbcf8833a	-0.030336011
166	0xba69d82c	-0.0008920457
167	0x3d74acb8	0.05973503
168	0x3d6c564e	0.057699494
169	0x3be60887	0.0070200595
170	0x3d2fcc60	0.042919517
171	0xbca67cda	-0.020323206
172	0x3e47f46e	0.19526836
173	0x3d97a17f	0.0740385
174	0xbe0024b0	-0.12513995
175	0xba5a3122	-0.00083233614
176	0x3ddf48ab	0.10902532
177	0x3e4972dd	0.19672723
178	0xbd690c76	-0.05689665
179	0x3d8b144f	0.06790983
180	0x3d8519c2	0.064990535
181	0x3d9de3e7	0.077094845
182	0x3e176661	0.14785148
183	0xbd4b157c	-0.049581036
184	0x3d81e946	0.063433215
185	0xbd83b9ba	-0.06431909
186	0x3de269bd	0.11055324
187	0xbe098b7d	-0.13432117
188	0x3e16a25e	0.14710376
189	0x3ca7eb29	0.020497875
190	0xbd3441c6	-0.04400804
191	0x3e0b92fd	0.1363029
192	0xbda1cd0b	-0.07900437
193	0xbdfe0f1b	-0.12405225
194	0xbe287aca	-0.1645309
195	0xbe024d3d	-0.12724777
196	0x3cd8b959	0.026455568
197	0x3de676b8	0.112531126
198	0x3d98eb7e	0.074667916
199	0x3d768b28	0.060191303
200	0xbe11d85f	-0.14242695
201	0x3de4c408	0.111702025
202	0xbd8ccf3a	-0.06875463
203	0x3ce2bdfe	0.027678486
204	0xbe1f1f3c	-0.15539259
205	0xbc97a396	-0.018510621
206	0xbe1c6dcc	-0.15276259
207	0xbd81defa	-0.063413575
208	0x3dc25833	0.09489479
209	0xbe24c117	-0.16089283
210	0xbdafac87	-0.08577829
211	0xbd329a3f	-0.04360413
212	0xbd2fa6e8	-0.042883784
213	0xbd329447	-0.04359844
214	0x3af4c0e4	0.0018673209
215	0xbd639025	-0.05555739
216	0x3de68fdc	0.11257908
217	0x3ca6702a	0.020317156
218	0x3e283dd1	0.16429831
219	0xbd351427	-0.044208672
220	0x3c5ecf15	0.013599177
221	0xbdfdd9da	-0.123950675
222	0x3c956b2f	0.018239586
223	0x3e0fa66d	0.1402833
224	0x3da77e77	0.08178418
225	0xbce87e66	-0.028380584
226	0x3c0f3fc1	0.008743227
227	0xbddad9f2	-0.10686101
228	0xbad0c1b5	-0.001592687
229	0xbdd8b106	-0.105806395
230	0x3cee86b1	0.02911696
231	0x3cbb822b	0.022889217
232	0x3e22b371	0.15888764
233	0x3db0a850	0.08625853
234	0xbcfc2b7b	-0.030782452
235	0x3d69ae89	0.057051215
236	0xba37cd87	-0.0007011522
237	0xbaff9cc1	-0.0019501672
238	0xbdb10cb6	-0.086450025
239	0xbd16b70c	-0.03679566
240	0x3b8e6115	0.004345069
241	0xbb948bab	-0.0045332513
242	0x3d6bbd77	0.057553735
243	0xbcbf81f1	-0.02337739
244	0x3d8bdaba	0.06828828
245	0xbd843da3	-0.06457069
246	0xbe9a2cfb	-0.30112442
247	0xbdfb54e2	-0.122720495
248	0xbda2797c	-0.079333276
249	0xbac57eaa	-0.0015067656
250	0xbd53f161	-0.05174387
251	0x3e1a8b76	0.15092263
252	0x3c85db15	0.016339818
253	0x3dd5d1ce	0.10440408
254	0x3d3db353	0.046313595
255	0x3af4fcc5	0.0018691054

blocks.0.fcn_layer.bias f4 [64]
0	0xbd13c579	-0.036076996
1	0x3dcaa5dd	0.09894917
2	0xbde9d5df	-0.11417746
3	0xbccd1ba8	-0.025037602
4	0xbc0c7c52	-0.008574562
5	0xbda421f6	-0.0801429
6	0x3da18019	0.07885761
7	0x3d483248	0.048876077
8	0x3b826d22	0.003980295
9	0x3d14b58b	0.036305945
10	0x3d280de8	0.041028887
11	0xbd687553	-0.056752514
12	0xbd8c8b99	-0.06862564
13	0x3c06aaa5	0.008219396
14	0xbe144ce8	-0.14482462
15	0x3da57d79	0.08080573
16	0x3d3d99f6	0.046289407
17	0xbd7b0de0	-0.06129253
18	0x3c882679	0.016619908
19	0x3dafb9d9	0.085803695
20	0xbda576ad	-0.08079276
21	0xbc2a7e0e	-0.01040603
22	0x3d9e40db	0.07727214
23	0xbc177002	-0.009243013
24	0x3d239ed3	0.03994639
25	0x3dd85118	0.105623424
26	0x3d24eb36	0.040263377
27	0x3ddd0193	0.10791316
28	0x3c89ff05	0.016845236
29	0x3d9371c5	0.07199434
30	0xbd82f969	-0.063952275
31	0x3dcad838	0.09904522
32	0x3de3973d	0.11112831
33	0xbd8e66fb	-0.06953236
34	0xbcc0b1f9	-0.023522364
35	0xbd5394c2	-0.05165554
36	0x3deaca3b	0.11464354
37	0xbd10ae7a	-0.035322644
38	0x3d2fdc96	0.042934977
39	0x3db8f06f	0.09030234
40	0x3df815bc	0.121135205
41	0xbc8550b7	-0.01627384
42	0x3de7f646	0.1132627
43	0x3d14a691	0.036291663
44	0x3cebad91	0.028769286
45	0x3d898da6	0.067164704
46	0xbd9e7223	-0.077366136
47	0x3b442a16	0.0029932312
48	0x3dd1fe3f	0.10253572
49	0xbdb173b6	-0.08664648
50	0xbcc24274	-0.023713328
51	0x3dbec185	0.09314255
52	0xbdde52b8	-0.10855621
53	0x3d15ee5d	0.036604274
54	0x3d180bc3	0.03712059
55	0xbe039869	-0.12851109
56	0x3c88d64c	0.016703747
57	0x3e0fd2fb	0.14045326
58	0x3da6c024	0.08142117
59	0xbda72c4c	-0.08162746
60	0x3dbb3f1e	0.09142898
61	0x3dbb4b70	0.09145248
62	0xbce54fdb	-0.02799218
63	0x3dc3ee25	0.09566907

blocks.0.layer_norm.weight f4 [64]
0	0x3f860e7f	1.0473174
1	0x3f8c5a42	1.0965044
2	0x3f88e4a4	1.0694776
3	0x3f974029	1.1816455
4	0x3f90aa1b	1.1301912
5	0x3f8ae4c9	1.085107
6	0x3f86710a	1.0503247
7	0x3f8d2736	1.1027591
8	0x3f868149	1.0508205
9	0x3f8dfa86	1.1092079
10	0x3f8eb852	1.115
11	0x3f8af466	1.0855834
12	0x3f8923dd	1.071407
13	0x3f96ac8c	1.1771407
14	0x3f9f4ac1	1.2444688
15	0x3f8b77f9	1.0895988
16	0x3f9068f7	1.1282033
17	0x3f92c559	1.1466476
18	0x3f8c888f	1.0979174
19	0x3f922e1e	1.1420324
20	0x3f87bdf1	1.060484
21	0x3f7ec3b8	0.99517393
22	0x3f8bb467	1.091443
23	0x3f868c59	1.0511581
24	0x3f9825da	1.1886551
25	0x3f8d5b7c	1.1043544
26	0x3f8ff181	1.1245576
27	0x3f8a342c	1.0797172
28	0x3f8a7879	1.0818015
29	0x3f895393	1.072863
30	0x3f89c6fe	1.0763853
31	0x3f8a2d6f	1.0795115
32	0x3f962a34	1.1731629
33	0x3f8f2f8c	1.1186385
34	0x3f8e5a30	1.1121273
35	0x3f84e644	1.0382771
36	0x3f997946	1.1990135
37	0x3f8293da	1.0201371
38	0x3f88e4a2	1.0694773
39	0x3f8d163d	1.1022412
40	0x3f93603a	1.1513741
41	0x3f8cb976	1.0994098
42	0x3f9179cc	1.1365294
43	0x3f8aca1f	1.0842932
44	0x3f818d29	1.0121204
45	0x3f93f1f0	1.1558208
46	0x3f83cfe9	1.0297824
47	0x3f8cddb1	1.1005155
48	0x3f897498	1.0738707
49	0x3f900cea	1.1253941
50	0x3f8f877b	1.121322
51	0x3f81cd40	1.0140762
52	0x3f902e73	1.1264175
53	0x3f858016	1.0429714
54	0x3f98f37a	1.1949303
55	0x3f989988	1.1921854
56	0x3f8a08be	1.0783918
57	0x3f936711	1.1515828
58	0x3f8fb26c	1.1226325
59	0x3f8c8e88	1.0980997
60	0x3f87e6ff	1.061737
61	0x3f8bd92b	1.092565
62	0x3f8be550	1.0929356
63	0x3f890280	1.0703888

blocks.0.layer_norm.bias f4 [64]
0	0x3d1edc9d	0.038784612
1	0x3d38ba3a	0.045099474
2	0x3d1238b0	0.035698593
3	0x3e1d162d	0.1534049
4	0xbca032aa	-0.019555409
5	0x3ce683c2	0.028138999
6	0x3d5333b8	0.051562995
7	0x3d4d9296	0.050188623
8	0x3c954588	0.018221632
9	0x3d4805f8	0.048833817
10	0x3d00fb3f	0.031489607
11	0x3cdf42b7	0.027253492
12	0x3d01524e	0.031572632
13	0x3e146030	0.14489818
14	0x3e336cfe	0.17522046
15	0x3dcedfa1	0.101012476
16	0x3e0ad69a	0.13558426
17	0x3dd66541	0.104685314
18	0x3ca27e1b	0.019835522
19	0x3e0de099	0.13855208
20	0x3c8a5a01	0.01688862
21	0x3d5215f3	0.051290464
22	0x3d080436	0.03320714
23	0x3ce921c1	0.028458478
24	0x3e0896c5	0.13338764
25	0x3d4497fd	0.04799651
26	0x3deab77a	0.114607766
27	0x3cc8c8bc	0.02450978
28	0x3d0be52a	0.034154095
29	0x3d38f0d7	0.045151558
30	0x3c890dd3	0.016730225
31	0x3d5fd25d	0.054643977
32	0x3e101fe5	0.14074667
33	0x3de9c9c2	0.114154354
34	0x3db0cb99	0.08632583
35	0x3d0a66db	0.033789497
36	0x3e0d772e	0.13814995
37	0xbbec8d4d	-0.007218993
38	0x3c880526	0.016604017
39	0x3d64485b	0.055733066
40	0x3e0f1885	0.13974197
41	0x3d792924	0.06083025
42	0x3d442f77	0.04789683
43	0x3d16f697	0.03685626
44	0x3cc03057	0.02346055
45	0x3e057603	0.13033299
46	0x3cff3daf	0.031157343
47	0x3cbfa52f	0.023394195
48	0x3c630e91	0.013858453
49	0x3df59bc2	0.11992599
50	0x3dac3ab6	0.08409636
51	0xbb92c1dc	-0.0044786762
52	0x3dd9ac3d	0.10628555
53	0x3cdcb2d4	0.02694074
54	0x3e155622	0.14583638
55	0x3da06763	0.078322195
56	0x3d3c08cb	0.045906823
57	0x3e213cf9	0.15745915
58	0x3d4d23bd	0.05008291
59	0x3cdf3f95	0.027251998
60	0x3c8d1b83	0.017225033
61	0x3ce68e54	0.02814404
62	0x3d310d32	0.043225475
63	0x3d56b305	0.05241682

last_layer.weight f4 [1, 64]
0	0x3e1f35c8	0.1554786
1	0x3e15a4ad	0.146136
2	0x3e0448ff	0.12918471
3	0xbe621636	-0.22078785
4	0x3e2b11fd	0.1670608
5	0x3e0528ee	0.13003895
6	0x3e23cc4c	0.15995902
7	0x3dca2b29	0.098715134
8	0x3d9ba579	0.07599921
9	0x3e03f271	0.12885453
10	0x3e05cab1	0.13065602
11	0x3e313516	0.17305407
12	0x3e1082c2	0.1411238
13	0xbe5d75da	-0.21626988
14	0x3e668b99	0.2251419
15	0xbe3b6474	-0.18300039
16	0xbe319404	-0.1734162
17	0xbe7cdd4b	-0.24693792
18	0x3dad821c	0.08472082
19	0xbe6a479d	-0.22878881
20	0x3e113cea	0.14183393
21	0xbd1bb5e5	-0.038015265
22	0x3e1c7fb9	0.15283097
23	0x3d9cd44a	0.076576784
24	0xbe98b592	-0.29826027
25	0x3dd63ccc	0.10460815
26	0xbe676f9c	-0.2260117
27	0x3df26e21	0.11837412
28	0x3e2fadf9	0.17156209
29	0x3d90b0b1	0.07064951
30	0x3d98c46e	0.07459341
31	0x3e28254b	0.16420476
32	0xbe3471fe	-0.1762161
33	0xbe571438	-0.21003807
34	0x3de28baf	0.11061799
35	0x3e1ddf56	0.15417227
36	0xbe836ea0	-0.25670338
37	0x3d26f8a0	0.04076445
38	0x3d8c26a7	0.0684331
39	0x3e11be47	0.14232741
40	0xbe75e6ce	-0.24013826
41	0x3dbe08b7	0.09279006
42	0x3e02e93f	0.12784289
43	0x3e4dd540	0.2010088
44	0xbddb1a7b	-0.1069841
45	0xbe63e747	-0.22256194
46	0x3d70d133	0.058793258
47	0x3df1a57f	0.11799144
48	0x3e0e6d42	0.13908866
49	0xbe57bd1c	-0.21068233
50	0x3dd796c9	0.10526807
51	0x3d703471	0.058643762
52	0x3dfb587f	0.12272739
53	0x3db1043e	0.08643387
54	0xbe64949c	-0.22322315
55	0x3e3433a8	0.1759783
56	0x3e4bc8e7	0.19900857
57	0xbe29e6b3	-0.16591911
58	0x3df7c645	0.12098364
59	0x3e20d7dc	0.15707344
60	0x3dceaf9b	0.10092088
61	0x3db51c76	0.08843319
62	0x3e5cfff4	0.21582013
63	0x3dae6a2a	0.08516343
